CNN/model.pth (torch, 137180 bytes, 10 tensors)

0.0.weight f4 [16, 1, 5, 5]
-0.028174726 -0.13985561 -0.11505896 0.045878187 -0.049462926 -0.0042898324 0.033163942 0.047529742
0.10598349 -0.13465676 -0.018296832 -0.024799254 -0.06328567 -0.102123246 -0.08872513 0.14598338
0.0133001115 0.16961415 0.028991556 -0.070963636 -0.2067482 0.10729004 -0.19662923 -0.025091432
0.17098075 -0.0025996098 0.016738614 0.085588604 -0.11195766 -0.06715655 -0.19918616 0.11524399
0.0020687939 -0.122296214 0.15293963 -0.19008811 -0.19241223 -0.18902694 -0.012133471 0.053987335
0.10338823 -0.1040553 0.15678136 0.04775446 0.1507523 -0.14189205 0.151262 -0.15648578
-0.08305635 -0.13855565 -0.1355234 0.15900312 0.011644579 0.036273737 0.0255232 -0.03671528
0.2820212 0.2543806 0.29761553 0.23596595 0.21650538 0.3395614 0.43646485 0.11683863
0.09542863 0.21642575 0.5814874 0.32238433 0.13595904 -0.32445377 0.098320685 0.3047478
0.20067057 -0.01238453 -0.22260882 0.055041425 -0.013051928 -0.23507911 -0.120381184 -0.29149833
0.13834235 0.20810744 -0.09988673 0.010756788 0.029665226 0.40098312 0.5063813 0.28268504
0.5864345 0.49791104 -0.042942446 0.28292367 0.3099037 0.077893645 0.35532632 -0.22130793
-0.036939535 -0.38593864 -0.12676659 0.014067594 0.06628801 0.05027174 0.27571937 -0.013636583
-0.11606998 -0.12725523 0.11047224 0.31903034 -0.20788762 -0.110078946 0.061798733 0.27936935
0.14926499 -0.22299558 -0.092952125 -0.03111858 0.1797028 0.19408268 -0.122361764 -0.13689241
0.10635978 0.20869468 -0.12228653 -0.10368238 -0.17563401 -0.10426986 0.073923536 0.14721559
-0.1751164 -0.015328803 -0.14610651 -0.10272813 -0.119553484 -0.22952424 0.040515322 0.17315204
0.12937625 0.106410466 -0.15387805 -0.091431946 0.036589514 0.23613034 0.22761798 0.16848853
-0.14021361 -0.16722302 -0.23110472 0.14992005 0.070942774 0.023025904 0.032452013 0.1818506
-0.25761095 -0.1990741 -0.4167156 0.2083837 0.1539451 -0.04276849 -0.61077225 -0.51809466
0.08814894 0.54588705 0.44831288 0.024116922 -0.18531947 0.123987034 0.45803702 0.59449446
0.3279723 0.22352058 -0.2765364 0.010431651 0.3337478 0.2271094 0.113555714 0.05530551
0.02067171 0.062426385 0.22294156 -0.028613849 -0.075718954 -0.068664715 -0.10385958 0.11496492
-0.0016116261 -0.11018375 -0.06375853 -0.1889059 0.035463247 0.18261735 -0.011212764 -0.09974608
0.0055186073 0.060876064 -0.0303665 0.18747787 0.080586836 -0.21474323 -0.060332842 0.00074921444
0.047225937 0.12710874 0.069326915 0.18630593 -0.15285024 -0.03638004 0.2192736 -0.03889789
0.1872927 -0.29286286 0.015235595 -0.093686834 0.34462917 0.106505066 -0.134672 -0.14864017
-0.19341235 0.19751267 0.25066856 0.0065187034 0.05117159 0.047393173 -0.08784307 0.13553847
-0.017496066 0.045816556 0.14247644 -0.13268384 0.17526075 0.26879466 0.12670569 0.10045255
-0.09455952 0.12699418 0.06851144 -0.05497875 -0.085248515 -0.06171506 0.10959994 -0.022367187
-0.08146424 -0.1780384 0.13186434 -0.04048604 -0.004422085 -0.14886497 0.049685787 0.072099835
-0.21700232 0.15637808 0.13109188 -0.15148123 -0.24909917 0.0066090147 -0.06313784 -0.14613362
00000000: afce e6bc 4f36 0fbe 08a4 ebbd c4ea 3b3d
00000010: a399 4abd b991 8cbb ead6 073d 8cae 423d
00000020: df0d d93d 76e3 09be 3de3 95bc ce27 cbbc
00000030: eb9b 81bd fe25 d1bd 85b5 b5bd ab7c 153e
00000040: b6e8 593c 55af 2d3e b37f ed3c 6255 91bd
00000050: cdb5 53be e1ba db3d 2c59 49be 8c8c cdbc
00000060: 9415 2f3e 375e 2abb 6b1f 893c 1449 af3d
00000070: 0f4a e5bd 6089 89bd 75f7 4bbe 0b05 ec3d
00000080: 9a94 073b 7076 fabd 359c 1c3e 75a6 42be
00000090: b607 45be 4790 41be 77cb 46bc d321 5d3d
000000a0: 35bd d33d f21a d5bd 4b8b 203e 2e9a 433d
000000b0: d05e 1a3e 264c 11be 6de4 1a3e cf3d 20be
000000c0: 7319 aabd 88e1 0dbe a5c6 0abe b7d1 223e
000000d0: e7c8 3e3c c593 143d 0816 d13c c362 16bd
000000e0: 1565 903e 2d3e 823e 1061 983e 0fa1 713e
000000f0: 96b3 5d3e feda ad3e 5278 df3e 1749 ef3d
00000100: 1670 c33d b69e 5d3e 5cdc 143f 8f0f a53e
00000110: d938 0b3e ce1e a6be 5b5c c93d e707 9c3e
00000120: 967c 4d3e 7ce8 4abc 91f3 63be 1e73 613d
00000130: c1d7 55bc 94b8 70be 698a f6bd 453f 95be
00000140: 9ea9 0d3e 1e1a 553e 6a91 ccbd 3d3d 303c
00000150: 7d04 f33c a94d cd3e 34a2 013f 18bc 903e
00000160: 9220 163f 32ee fe3e 6be4 2fbd 5fdb 903e
00000170: b3ab 9e3e b486 9f3d 55ed b53e 8c9e 62be
00000180: e94d 17bd c099 c5be 1acf 01be c47b 663c
00000190: 02c2 873d bde9 4d3d 172b 8d3e fa6b 5fbc
000001a0: 19b6 edbd 324f 02be 453f e23d f257 a33e
000001b0: 7ee0 54be 1271 e1bd ab20 7d3d 8009 8f3e
000001c0: ecd8 183e f458 64be af5d bebd 64ec febc
000001d0: 0304 383e 9cbd 463e ce98 fabd 862d 0cbe
000001e0: 28d3 d93d 0fb4 553e 5c71 fabd 6d57 d4bd
000001f0: 67d9 33be 708b d5bd 3965 973d afbf 163e
00000200: b751 33be a925 7bbc f29c 15be 2063 d2bd
00000210: 75d8 f4bd 6708 6bbe 65f3 253d c54e 313e
00000220: 357b 043e bbed d93d 3592 1dbe ac40 bbbd
00000230: e3de 153d 27cc 713e b014 693e 4288 2c3e
00000240: 2894 0fbe 833c 2bbe b7a6 6cbe a484 193e
00000250: 724a 913d d2a0 bc3c 67ec 043d 0b37 3a3e
00000260: 95e5 83be 15da 4bbe bf5b d5be 8962 553e
00000270: c9a3 1d3e 032e 2fbd 925b 1cbf daa1 04bf
00000280: 6e87 b43d 41bf 0b3f 4489 e53e da90 c53c
00000290: 63c4 3dbe eaec fd3d d483 ea3e ca30 183f
000002a0: fceb a73e 94e2 643e 2e96 8dbe 84e9 2a3c
000002b0: fee0 aa3e 5e8f 683e e68f e83d 0888 623d
000002c0: b857 a93c cfb2 7f3d cb4a 643e 9767 eabc
000002d0: 8a12 9bbd 16a0 8cbd 55b4 d4bd ba72 eb3d
000002e0: 333d d3ba 05a8 e1bd d593 82bd 8c70 41be
000002f0: e941 113d 0b00 3b3e beb5 37bc ac47 ccbd
00000300: 6fd5 b43b 2e59 793d 2bc3 f8bc 33fa 3f3e
00000310: b60a a53d a6e5 5bbe 921f 77bd ee66 443a
00000320: fc6f 413d cb28 023e 45fb 8d3d fbc6 3e3e
00000330: c684 1cbe 3d03 15bd 4289 603e 6553 1fbd
00000340: a8c9 3f3e 1ff2 95be b89e 793c e2de bfbd
00000350: 3c73 b03e 541f da3d 75e7 09be 2135 18be
00000360: e30d 46be c340 4a3e a157 803e d99a d53b
00000370: 4d99 513d 581f 423d 11e7 b3bd 99ca 0a3e
00000380: e953 8fbc 24aa 3b3d 58e5 113e 46de 07be
00000390: 8e77 333e 749f 893e 23bf 013e 11ba cd3d
000003a0: 6ca8 c1bd c30a 023e ba4f 8c3d 6631 61bd
000003b0: c696 aebd eec8 7cbd ef75 e03d 643b b7bc
000003c0: b9d6 a6bd b34f 36be 7207 073e b1d4 25bd
000003d0: 23e7 90bb 0f70 18be 5383 4b3d 14a9 933d
000003e0: db35 5ebe 9321 203e f33c 063e e51d 1bbe
000003f0: da13 7fbe 6f90 d83b 694e 81bd 0da4 15be

0.0.bias f4 [16]
-0.06494101 -0.045061424 -0.1410465 0.007839485 -0.18067344 -0.11865863 -0.037632506 -0.017398473
-0.1159076 0.04193182 0.10635379 -0.02656688 0.19125666 -0.20359115 -0.13425264 -0.0026875006
00000000: cbff 84bd 5492 38bd 7e6e 10be 2f71 003c
00000010: 7502 39be 4c03 f3bd 8b24 1abd 3e87 8ebc
00000020: f760 edbd b3c0 2b3d 04d0 d93d c9a2 d9bc
00000030: c9d8 433e 337a 50be 8679 09be c720 30bb

2.0.weight f4 [32, 16, 3, 3]
0.06997582 -0.05680077 -0.018416503 0.059555516 0.009975328 -0.033160374 -0.050553795 0.049893666
0.051542755 0.027754504 0.025288098 0.07843578 0.027366411 -0.036038876 -0.012944295 -0.045065347
0.060040075 0.042650998 0.070755385 -0.10489571 -0.07904271 -0.02806708 -0.09233477 -0.06178582
0.047300413 0.0898806 0.073590115 0.036087018 -0.039415125 0.041407246 0.06972908 -0.101569
-0.19229904 0.13130906 0.1346079 0.071978755 -0.0023188763 0.017047483 0.014432484 0.041496195
-0.08776925 0.014195024 -0.009464056 -0.07674574 -0.048752964 0.08275065 -0.044590533 0.049353182
-0.052648045 -0.060116116 0.018935196 0.024950832 0.024689581 0.041899033 0.08064579 0.0485098
-0.04792618 -0.0062188203 -0.023934316 -0.116948634 0.17303914 0.19033863 0.14801066 0.030512227
-0.005949167 -0.041021213 -0.055312645 -0.07514095 0.011978402 0.013116699 0.054276895 0.02280014
-0.054495033 0.0063023376 -0.030046273 0.02259074 0.010487975 -0.009411871 -0.0019623043 0.012550712
0.07408121 -0.034639545 -0.005194169 0.070406266 -0.054813806 -0.025180694 -0.01803248 -0.059518587
-0.04926325 0.0020893186 0.014287863 -0.106759146 0.0688646 -0.008069168 0.0039994763 -0.077969894
0.026400967 -0.04320553 0.051248524 0.045034572 -0.047129523 0.08483649 0.074797 0.024556803
0.034714144 0.054887492 0.0043884977 -0.021570265 -0.026513388 -0.005590682 -0.086168125 -0.035372198
0.055996742 0.04068605 -0.061143678 -0.05460681 0.04405672 -0.027046312 0.030930188 -0.021964757
0.026610916 -0.08040249 0.011196936 0.0782831 0.036562707 -0.0690393 0.019710153 -0.05477308
0.0108614685 0.07137987 -0.08935669 -0.06109683 -0.06963592 -0.03467209 0.0116455695 0.02654613
-0.050355498 0.021601463 -0.08339559 0.06055244 -0.0071880547 -0.0402284 0.040977776 0.05966142
0.04166692 0.022092383 0.04430493 -0.03008136 -0.0038403028 -0.066728584 -0.072253756 0.0381009
0.01478108 0.077398136 0.075688735 0.059278127 -0.044691 0.009837087 -0.028423084 -0.07850525
0.00072605186 0.050042566 -0.022809042 -0.024014242 -0.07996783 0.066756345 0.043496143 -0.050438564
0.020855052 0.029642608 -0.02367733 -0.060380545 -0.030852245 -0.055595014 -0.05444757 0.07757731
-0.06944756 -0.004776417 -0.06621281 -0.0221757 0.047252554 0.03221955 -0.03549377 -0.00031744334
0.0775889 0.07696601 -0.049034856 0.03605739 -0.018661793 -0.0008518575 -0.02860685 0.01677664
-0.021015363 -0.0357246 -0.023440877 0.0028410177 0.0062515987 -0.008277539 0.035618026 0.008739857
-0.07607932 -0.023415772 0.027011823 -0.03871582 -0.07345167 -0.020040737 -0.06372703 -0.0154958265
0.060081296 -0.04461938 0.075343534 -0.028952641 0.0021392591 -0.014770216 -0.007956719 0.07080951
-0.020613728 0.01599006 -0.05231016 0.0069147893 -0.036247276 0.009467694 -0.07020391 -0.001830116
-0.042687126 -0.05900213 0.003645097 -0.016723637 -0.02575927 -0.06713617 0.06456878 0.03517693
0.040296607 0.01331249 0.05271902 -0.06800742 0.020903664 0.06633884 -0.013185932 0.03456821
-0.018796686 0.027537227 0.07696801 0.045775358 -0.073457435 -0.07071027 -0.04659674 0.08208044
0.034821156 -0.07031379 -0.07226946 0.046016578 -0.02926048 0.012702045 0.017127551 -0.033535674
00000000: 7c4f 8f3d eda7 68bd 35de 96bc 7cf0 733d
00000010: 8f6f 233c 2cd3 07bd 7f11 4fbd 4d5d 4c3d
00000020: 7f1e 533d 6a5d e33c fc28 cf3c f0a2 a03d
00000030: 862f e03c 809d 13bd 4f14 54bc 7196 38bd
00000040: 95ec 753d d0b2 2e3d 33e8 903d 90d3 d6bd
00000050: 25e1 a1bd efec e5bc 031a bdbd 2113 7dbd
00000060: 14be 413d 5213 b83d 6ab6 963d fbcf 133d
00000070: c171 21bd a59a 293d 1fce 8e3d 6803 d0bd
00000080: 0aea 44be e275 063e a7d6 093e 9969 933d
00000090: 4af8 17bb 2aa7 8b3c 3a76 6c3c eaf7 293d
000000a0: 5dc0 b3bd 3f92 683c 210f 1bbc df2c 9dbd
000000b0: 30b1 47bd 2c79 a93d 90a4 36bd 9026 4a3d
000000c0: 7aa5 57bd 513c 76bd fc1d 9b3c b065 cc3c
000000d0: ce41 ca3c 529e 2b3d 9f29 a53d 36b2 463d
000000e0: 3e4e 44bd 3fc7 cbbb e611 c4bc c482 efbd
000000f0: 2c31 313e 21e8 423e 1b90 173e c7f4 f93c
00000100: 3bf1 c2bb dc05 28bd 838f 62bd 80e3 99bd
00000110: 0f41 443c 6ce7 563c 7351 5e3d 5cc7 ba3c
00000120: 2f36 5fbd d783 ce3b 9a23 f6bc 3710 b93c
00000130: c1d5 2b3c 4034 1abc 019a 00bb 80a1 4d3c
00000140: e4b7 973d 32e2 0dbd d933 aabb 2931 903d
00000150: 7184 60bd be47 cebc dab8 93bc c3c9 73bd
00000160: 43c8 49bd f3ec 083b a417 6a3c 8aa4 dabd
00000170: e208 8d3d 8b34 04bc 0a0e 833b aeae 9fbd
00000180: d746 d83c 48f8 30bd f9e9 513d 2c76 383d
00000190: e30a 41bd c1be ad3d 2b2f 993d 592b c93c
000001a0: 6b30 0e3d b5d1 603d 63cd 8f3b 20b4 b0bc
000001b0: 9b32 d9bc 0a32 b7bb ea78 b0bd 70e2 10bd
000001c0: d75c 653d 6aa6 263d cb71 7abd 64ab 5fbd
000001d0: d274 343d 3a90 ddbc 4e61 fd3c 6fef b3bc
000001e0: 23ff d93c 10aa a4bd 5a73 373c e452 a03d
000001f0: c7c2 153d 7a64 8dbd 3077 a13c bd59 60bd
00000200: 4df4 313c 9c2f 923d a400 b7bd ab40 7abd
00000210: 479d 8ebd 5204 0ebd 0fcd 3e3c 4577 d93c
00000220: 9141 4ebd 8df5 b03c 4fcb aabd d605 783d
00000230: c689 ebbb 89c6 24bd 50d8 273d 885f 743d
00000240: efaa 2a3d 16fb b43c 1679 353d 2f6d f6bc
00000250: 97ad 7bbb ffa8 88bd c7f9 93bd b00f 1c3d
00000260: 582c 723c ea82 9e3d b202 9b3d 9fcd 723d
00000270: e90d 37bd bc2b 213c 87d7 e8bc 5cc7 a0bd
00000280: 8454 3e3a 6ff9 4c3d 07da babc 84b9 c4bc
00000290: 2cc6 a3bd 8db7 883d 0329 323d ab98 4ebd
000002a0: 37d8 aa3c 0ed5 f23c f6f6 c1bc 9751 77bd
000002b0: d9bd fcbc 99b7 63bd 6a04 5fbd dae0 9e3d
000002c0: 863a 8ebd 7d83 9cbb 959a 87bd d0a9 b5bc
000002d0: e58b 413d a6f8 033d ea61 11bd 866e a6b9
000002e0: eee6 9e3d 5ba0 9d3d c6d8 48bd eab0 133d
000002f0: 9ee0 98bc 304f 5fba ea58 eabc 2a6f 893c
00000300: 6928 acbc f553 12bd 1507 c0bc 5e30 3a3b
00000310: 36da cc3b 849e 07bc 35e4 113d 9e31 0f3c
00000320: 79cf 9bbd 6fd2 bfbc e647 dd3c 7b94 1ebd
00000330: d46d 96bd 792c a4bc 5183 82bd 35e2 7dbc
00000340: ce17 763d d0c2 36bd b64d 9a3d 172e edbc
00000350: d032 0c3b c7fe 71bc e65c 02bc 9404 913d
00000360: 1fde a8bc 96fd 823c 2e43 56bd 7595 e23b
00000370: 0678 14bd 631e 1b3c 11c7 8fbd 81e0 efba
00000380: b2d8 2ebd 38ac 71bd 94e2 6e3b 0200 89bc
00000390: 1b05 d3bc b07e 89bd a33c 843d af15 103d
000003a0: 0e0e 253d a11c 5a3c e6ef 573d 7947 8bbd
000003b0: 293e ab3c a8dc 873d cf09 58bc 6597 0d3d
000003c0: 82fb 99bc c095 e13c 67a1 9d3d f17e 3b3d
000003d0: da70 96bd 8cd0 90bd 39dc 3ebd ca19 a83d
000003e0: a1a0 0e3d ad00 90bd 0302 94bd e17b 3c3d
000003f0: adb3 efbc 3d1c 503c 144f 8c3c b45c 09bd

2.0.bias f4 [32]
0.03710133 0.055699054 -0.045867357 0.050886974 -0.039667334 -0.09149199 0.01824584 -0.06705188
-0.05162101 -0.051301964 -0.06396277 -0.14261828 -0.11332922 -0.09826606 -0.05322813 -0.06320055
-0.007764554 0.15602744 0.046378966 -0.080975 -0.042911395 0.109727636 0.030848386 -0.08613485
-0.004197752 0.016181411 0.14923732 0.04861316 -0.09218647 0.01756508 -0.0087352805 -0.024612853
00000000: 90f7 173d b124 643d 69df 3bbd dc6e 503d
00000010: 377a 22bd 2760 bbbd 4d78 953c 7f52 89bd
00000020: 8d70 53bd 0222 52bd eafe 82bd 870a 12be
00000030: 2619 e8bd b73f c9bd bd05 5abd 4a6f 81bd
00000040: cd6d febb a8c5 1f3e dff7 3d3d 39d6 a5bd
00000050: dcc3 2fbd e2b8 e03d c1b5 fc3c 7867 b0bd
00000060: 4c8d 89bb e18e 843c abd1 183e 981e 473d
00000070: 43cc bcbd a5e4 8f3c 6c1e 0fbc e5a0 c9bc

4.0.weight f4 [32, 32, 3, 3]
0.0021768806 -0.041877404 0.029484015 -0.049797352 -0.017896162 -0.022914639 0.020465715 0.019423043
-0.1298174 0.047682203 -0.047735505 -0.059659526 -0.015733045 -0.021849932 -0.04187326 0.022169014
0.015512307 -0.05329995 -0.106153004 -0.12941687 -0.039271556 0.040461313 0.015660614 0.08025976
0.07626967 0.21125984 0.042785812 0.07962894 0.050919402 0.01611376 -0.13068612 -0.060921084
-0.05764572 0.03968046 0.026131371 0.024870954 0.014398777 0.011950396 0.020717543 -0.0142582925
-0.038374722 -0.0049531935 0.024356667 -0.040818978 0.049829304 0.029460937 0.22827907 -0.0075448765
0.012884366 -0.116423815 0.011501458 -0.040618394 0.011470274 0.04502924 0.059048906 0.06338765
0.049717084 -0.079902776 -0.019653676 -0.033059273 -0.046929065 0.05282041 0.047504455 0.01596886
0.20193838 0.1619171 0.054616075 0.00059342873 -0.06255108 -0.09665772 -0.00031316033 0.11544235
-0.050055966 -0.020436766 0.10468989 -0.09520388 0.080439314 0.14960614 0.048618417 0.13629277
-0.069988035 -0.04548299 0.0058891717 -0.029971879 0.11498334 0.0595397 -0.08864545 -0.044445127
-0.08119617 0.035096675 0.045937173 0.11480123 0.05807829 -0.02780759 0.0036750638 -0.04020745
-0.06795065 -0.019191546 0.03911497 -0.06432796 0.041261245 -0.19660686 0.14197055 -0.084338784
-0.13554923 0.11669067 0.077056855 -0.11475838 0.07363455 0.09364828 0.014568108 0.01273641
0.062181335 -0.08384723 -0.122726835 -0.027145544 0.1493517 -0.02595778 -0.06599155 -0.046106797
0.0038756086 -0.03501282 -0.011659478 -0.056585677 -0.024556542 -0.044576034 -0.016737835 0.14319818
0.19418898 -0.0663103 -0.035025366 -0.097968236 -0.057114907 -0.047433443 0.020350812 -0.05585152
-0.03917504 0.015760982 -0.029231984 -0.007938965 -0.057728212 0.0015413248 0.045236498 0.0039500566
-0.030259542 0.16802059 0.006439384 0.0520497 -0.03619129 -0.104603365 0.0023796777 -0.0150360195
-0.021608485 0.11341301 0.011013043 0.045897074 -0.084833145 -0.11729216 0.0939932 0.08792629
0.16570255 -0.00014277716 -0.048451897 -0.044466645 0.023035593 -0.045403726 -0.026725473 0.017243132
-0.011734271 0.022642223 -0.041797742 -0.12967211 -0.14060703 -0.085955314 0.014988727 0.023178073
0.009331368 0.056082364 0.117547184 -0.024403002 0.08081146 0.03121422 0.2294388 -0.09057563
-0.14626768 0.078935 -0.04544627 0.03765536 0.05178261 0.035275735 -0.001810483 -0.03819229
0.046120156 -0.03556246 -0.1595725 0.0494638 -0.008967326 -0.11471084 0.037301965 -0.02520345
-0.05182456 0.0074870866 -0.05819004 0.09699667 0.014135061 0.058034565 -0.045705646 0.10951264
0.091059916 -0.07101911 0.05785165 0.048659 -0.07433421 -0.049686506 -0.036662214 0.043365072
-0.08569623 -0.076174036 0.009804381 0.09380714 0.1575779 0.031618312 0.10748189 0.017642744
-0.0679252 0.06787634 -0.0073724207 0.15650176 -0.10909131 -0.04227801 -0.004496071 0.055769056
-0.010214725 -0.07136485 0.16924152 0.18855652 0.028229985 0.06534788 -0.023467988 -0.11575897
-0.019811358 -0.09056345 0.04668223 0.06682291 0.061395362 -0.038426857 0.035550952 0.116081625
-0.06902191 -0.07433325 -0.0546858 -0.056936692 -0.14309153 0.007192232 -0.03873737 0.0062554954
00000000: ffa9 0e3b a487 2bbd 7688 f13c 4ff8 4bbd
00000010: f99a 92bc 7bb7 bbbc b7a7 a73c 131d 9f3c
00000020: daee 04be 6a4e 433d 4e86 43bd 8c5d 74bd
00000030: 96e2 80bc a1fe b2bc 4c83 2bbd cb9b b53c
00000040: 5527 7e3c 0c51 5abd bf66 d9bd db85 04be
00000050: 36db 20bd c3ba 253d b04a 803c 3b5f a43d
00000060: 4633 9c3d 8054 583e 2d40 2f3d 7f14 a33d
00000070: dd90 503d 0101 843c 95d2 05be 6388 79bd
00000080: eb1d 6cbd fa87 223d 7511 d63c 2cbe cb3c
00000090: d9e8 6b3c 98cb 433c d6b7 a93c 9d9b 69bc
000000a0: d02e 1dbd 664e a2bb a287 c73c cd31 27bd
000000b0: d019 4c3d 1058 f13c fdc1 693e 033b f7bb
000000c0: f318 533c 9c6f eebd 9c70 3c3c 795f 26bd
000000d0: d1ed 3b3c 9570 383d 44dd 713d 62d1 813d
000000e0: 24a4 4b3d 11a4 a3bd bf00 a1bc 2969 07bd
000000f0: b138 40bd 375a 583d 0894 423d 20d1 823c
00000100: efc8 4e3e 99cd 253e 1bb5 5f3d 5490 1b3a
00000110: c81a 80bd 7cf4 c5bd ab2f a4b9 0a6d ec3d
00000120: 7c07 4dbd 016b a7bc a767 d63d 40fa c2bd
00000130: 5ebd a43d 5a32 193e 1b24 473d 5590 0b3e
00000140: e355 8fbd 5f4c 3abd f4f9 c03b 9687 f5bc
00000150: 637c eb3d e7df 733d bf8b b5bd 180c 36bd
00000160: 2d4a a6bd 88c1 0f3d 9e28 3c3d e81c eb3d
00000170: 80e3 6d3d becc e3bc 57d9 703b 91b0 24bd
00000180: b629 8bbd 9737 9dbc 0537 203d 61be 83bd
00000190: 8d01 293d 4f53 49be ba60 113e d0b9 acbd
000001a0: 6bcd 0abe 85fb ee3d fccf 9d3d 7106 ebbd
000001b0: b6cd 963d abca bf3d 13af 6e3c 60ac 503c
000001c0: dbb1 7e3d 19b8 abbd 3558 fbbd 5560 debc
000001d0: a7ef 183e 69a5 d4bc 9426 87bd 7bda 3cbd
000001e0: ecfd 7d3b 9a69 0fbd 6507 3fbc 62c6 67bd
000001f0: cd2a c9bc 5c95 36bd c91d 89bc 8ba2 123e
00000200: 7ad9 463e b2cd 87bd c276 0fbd 92a3 c8bd
00000210: 52f1 69bd 9249 42bd bfb6 a63c 90c4 64bd
00000220: 0276 20bd 2d1d 813c ea77 efbc 6f12 02bc
00000230: 6b74 6cbd 4706 ca3a e849 393d 7a6f 813b
00000240: dce2 f7bc 970d 2c3e 7801 d33b 1132 553d
00000250: 513d 14bd 4a3a d6bd 5ef4 1b3b a359 76bc
00000260: 4704 b1bc 1545 e83d 0d70 343c 92fe 3b3d
00000270: 00bd adbd df36 f0bd 827f c03d b312 b43d
00000280: eead 293e 74b6 15b9 7f75 46bd a822 36bd
00000290: 24b5 bc3c 42f9 39bd 61ef dabc 7841 8d3c
000002a0: 1a41 40bc 2f7c b93c 1c34 2bbd c4c8 04be
000002b0: 4afb 0fbe 5709 b0bd 4793 753c f1df bd3c
000002c0: 98e2 183c 9fb6 653d 94bc f03d cee8 c7bc
000002d0: 7b80 a53d f7b4 ff3c 01f2 6a3e b77f b9bd
000002e0: 32c7 15be aca8 a13d de25 3abd 823c 1a3d
000002f0: 011a 543d 4a7d 103d bb4d edba 856f 1cbd
00000300: 7de8 3c3d f1a9 11bd f966 23be 8e9a 4a3d
00000310: b1eb 12bc 84ed eabd f2c9 183d 7777 cebc
00000320: fd45 54bd 3c56 f53b ae58 6ebd 31a6 c63d
00000330: be96 673c a7b5 6d3d d835 3bbd 2a48 e03d
00000340: 9f7d ba3d 7872 91bd daf5 6c3d a94e 473d
00000350: 893c 98bd 1484 4bbd 1e2b 16bd 939f 313d
00000360: 8181 afbd 2201 9cbd 8ea2 203c f51d c03d
00000370: 1a5c 213e 3482 013d 771f dc3d 8487 903c
00000380: 5e1c 8bbd c002 8b3d 5994 f1bb ff41 203e
00000390: 446b dfbd b52b 2dbd c753 93bb 186e 643d
000003a0: a95b 27bc bc27 92bd a64d 2d3e f614 413e
000003b0: 9242 e73c 1cd5 853d f03f c0bc 0a13 edbd
000003c0: 6e4b a2bc 5479 b9bd de35 3f3d 73da 883d
000003d0: b479 7b3d 7b65 1dbd e09d 113d 34bc ed3d
000003e0: 5c5b 8dbd 083c 98bd 38fe 5fbd 7336 69bd
000003f0: 9686 12be d1ac eb3b 14ab 1ebd e6fa cc3b

4.0.bias f4 [32]
-0.022969086 0.003115377 0.044519905 -0.00041187822 -0.054435093 0.035026167 0.037353795 0.044083513
0.015723962 0.0053142593 0.0425199 0.04870381 0.01149877 0.013942692 0.067233674 0.044104487
0.033127468 -0.011813602 0.028662333 0.0414647 0.00355678 0.0052669873 -0.060311113 -0.01932692
0.013817608 0.060322277 0.0077118813 0.026289988 0.044443272 -0.029570265 0.02521066 -0.026491283
00000000: aa29 bcbc 5a2b 4c3b 815a 363d 5cf1 d7b9
00000010: 55f7 5ebd 9977 0f3d 4b00 193d ea90 343d
00000020: 8acf 803c 3d23 ae3b 5929 2e3d a57d 473d
00000030: 5665 3c3c e46f 643c cfb1 893d e8a6 343d
00000040: abb0 073d d78d 41bc 45cd ea3c e4d6 293d
00000050: de18 693b b196 ac3b c908 77bd 7d53 9ebc
00000060: 4063 623c 7e14 773d f3b3 fc3b 1a5e d73c
00000070: 260a 363d 573d f2bc 9686 ce3c 3f04 d9bc

6.0.weight f4 [64, 288]
-0.046012156 0.041128527 -0.0093626315 -0.077219084 -0.017158981 -0.06342717 -0.041160703 -0.035872635
-0.011671771 0.054330457 -0.0017065285 0.013141293 0.025227947 0.0057047275 -0.014075963 0.03467261
0.043060787 0.035282753 0.0132407285 -0.019815259 0.06298548 0.034585614 0.009662164 -0.02670359
-0.08104003 -0.03910935 0.026460046 0.036146447 -0.042867567 0.040295042 -0.04728425 0.0058558024
-0.020302724 -0.0017214674 0.07544934 -0.034476604 -0.015083136 0.043335397 0.061976474 0.054128233
0.0071004955 0.01897972 -0.045292027 -0.040540986 0.013344546 0.021963472 0.075148426 -0.02561954
0.05486153 -0.07875109 -0.03542757 -0.03977106 -0.027135888 0.0069451756 0.0050909333 -0.0026771259
0.060458194 0.00078149076 0.026318407 0.066599 -0.0049208975 0.005768699 0.035630953 0.059934773
0.09295655 0.07150331 -0.004435439 0.07779123 0.009076142 0.042235654 0.010757352 0.047258247
-0.056611694 0.007566571 -0.0047069774 -0.020155359 0.043985758 0.06238639 0.05559771 0.04737037
-0.012933984 0.020316908 0.037286125 -0.03181823 0.034685615 -0.035547074 -0.02232442 -0.017064368
0.0035521002 -0.051632673 0.03436445 -0.0769834 -0.011738401 0.003560131 -0.040876146 -0.006767621
0.10596686 -0.0013685204 -0.033687904 0.0047574723 0.07696297 -0.042666353 0.106644094 0.033118635
-0.05308002 0.01779302 -0.039963424 0.02591511 -0.04908338 0.041277986 -0.07203845 -0.03059362
0.04129405 -0.06997579 0.055540875 0.011102554 -0.056351624 0.029569976 -0.012900005 -0.016333142
0.07409894 0.005296593 0.04990677 0.034853887 -0.055074807 -0.08201184 0.001303502 -0.0044733374
0.012281003 -0.040155318 0.026424944 0.01493976 0.056105617 0.041981813 -0.045195647 -0.03621889
-0.028808631 -0.046115614 -0.047146592 0.030700916 -0.033927675 -0.06281367 0.006845664 0.022154633
-0.024251405 -0.01471311 0.020312216 -0.032048907 0.034193523 0.03747377 -0.037507843 -0.027667478
0.014298896 0.01845797 0.038052175 -0.053612083 -0.015191158 0.045716785 -0.0015481728 0.014503992
-0.005551017 -0.021577181 -0.065656096 -0.0075655277 -0.0009633217 0.05438863 0.026635015 -0.035477035
0.038545076 0.031216593 -0.02560369 0.003740872 -0.007269126 -0.039934333 0.0061772256 0.040631708
0.031208225 -0.105535366 -0.058277395 -0.002921276 0.058275945 0.04115037 0.053162202 0.019768449
0.032966945 -0.009356684 -0.039791223 -0.04997447 0.05690009 0.012000129 0.06267617 0.07093984
0.049393695 -0.04286209 0.013842507 -0.038722705 -0.028911777 0.026672145 0.013862263 0.04165807
-0.051403064 0.020046467 0.03583946 -0.04401676 -0.00855101 -0.023884099 -0.010263703 0.0020859279
-0.02274026 -0.024159685 0.011047815 -0.063556276 -0.05474913 0.051180836 -0.0052352985 -0.04736292
-0.053410333 0.0174304 -0.01583107 -0.057473335 -0.05101455 -0.013272412 -0.041253995 -0.05540971
-0.05600978 -0.023594305 -0.051790256 -0.003965107 -0.104938194 -0.038250074 -0.06714415 0.028701054
-0.07412659 -0.03609805 -0.020871317 -0.01765763 0.07243852 -0.042154696 0.0020783346 0.019096514
0.01539503 -0.053821195 -0.022729335 -0.032704394 -0.015871454 0.011771197 -0.05071741 0.04537323
-0.030514458 -0.031163918 -0.03585712 -0.06231827 0.045431003 0.08721616 0.056481868 0.07400094
00000000: 3e77 3cbd 6376 283d b965 19bc 0a25 9ebd
00000010: fe90 8cbc 1be6 81bd 2098 28bd 2fef 12bd
00000020: f53a 3fbc 9d89 5e3d 98ad dfba 944e 573c
00000030: d7aa ce3c b9ee ba3b de9e 66bc de04 0e3d
00000040: 8260 303d a684 103d a4ef 583c 9c53 a2bc
00000050: 88fe 803d a5a9 0d3d 0e4e 1e3c 7dc1 dabc
00000060: 51f8 a5bd 2031 20bd bdc2 d83c 4c0e 143d
00000070: e795 2fbd 6a0c 253d 21ad 41bd 08e2 bf3b
00000080: e651 a6bc dca2 e1ba 2f85 9a3d 5737 0dbd
00000090: 421f 77bc 7580 313d 0bdb 7d3d 91b5 5d3d
000000a0: 46ab e83b 5c7b 9b3c 2284 39bd 4e0e 26bd
000000b0: 15a3 5a3c bdec b33c 6be7 993d 12e0 d1bc
000000c0: 7cb6 603d 4048 a1bd 801c 11bd fbe6 22bd
000000d0: 154c debc 5b94 e33b d8d1 a63b b872 2fbb
000000e0: 03a3 773d f5dc 4c3a b399 d73c 0e65 883d
000000f0: 7b3f a1bb 5b07 bd3b c3f1 113d 2a7e 753d
00000100: 0160 be3d 5470 923d 2957 91bb 0251 9f3d
00000110: 19b4 143c 4bff 2c3d 9b3f 303c dd91 413d
00000120: aae1 67bd fff0 f73b fd3c 9abb da1c a5bc
00000130: 692a 343d df88 7f3d 6dba 633d 6f07 423d
00000140: 10e9 53bc a56f a63c 56b9 183d d553 02bd
00000150: 8112 0e3d cf99 11bd b4e1 b6bc 93ca 8bbc
00000160: 5aca 683b c87c 53bd bdc1 0c3d 79a9 9dbd
00000170: 6c52 40bc 1651 693b bf6d 27bd ebc2 ddbb
00000180: 2705 d93d ed5f b3ba 54fc 09bd 92e4 9b3b
00000190: c39e 9d3d eac2 2ebd 3868 da3d 68a7 073d
000001a0: 6f6a 59bd abc2 913c b0b0 23bd ed4b d43c
000001b0: a70b 49bd 1b13 293d e588 93bd 799f fabc
000001c0: f323 293d 784f 8fbd d47e 633d 7de7 353c
000001d0: f6d0 66bd bc3c f23c 8b5a 53bc 15cd 85bc
000001e0: 2fc1 973d 0b8f ad3b 0b6b 4c3d f3c2 0e3d
000001f0: 1f96 61bd d3f5 a7bd 45da aa3a 1395 92bb
00000200: 4336 493c e779 24bd 2079 d83c e5c5 743c
00000210: 01cf 653d 1ff5 2b3d 121f 39bd 425a 14bd
00000220: 1400 ecbc bae3 3cbd c91c 41bd 7d80 fb3c
00000230: bff7 0abd 74a4 80bd 9751 e03b a27d b53c
00000240: e2aa c6bc 420f 71bc ce65 a63c b745 03bd
00000250: 820e 0c3d 197e 193d d3a1 19bd e8a6 e2bc
00000260: eb45 6a3c 2b35 973c 99dc 1b3d 5898 5bbd
00000270: 56e4 78bc 8641 3b3d 0fec caba 27a2 6d3c
00000280: 4ee5 b5bb a1c2 b0bc b476 86bd 3fe8 f7bb
00000290: 6d87 7cba 9dc6 5e3d ad31 da3c 5e50 11bd
000002a0: 71e1 1d3d f1b9 ff3c d4be d1bc 6b29 753b
000002b0: d931 eebb 2f92 23bd 536a ca3b 6f6d 263d
000002c0: 64a8 ff3c ed22 d8bd 47b4 6ebd e172 3fbb
000002d0: c2b2 6e3d 4a8d 283d 9cc0 593d 71f1 a13c
000002e0: 5908 073d c74c 19bc 1ffc 22bd 08b2 4cbd
000002f0: 1210 693d 309c 443c 5d5c 803d e848 913d
00000300: 0b51 4a3d 2990 2fbd afcb 623c b39b 1ebd
00000310: 64d8 ecbc 8b7f da3c 8c1e 633c a7a1 2a3d
00000320: 058c 52bd 7d38 a43c 66cc 123d eb4a 34bd
00000330: 8919 0cbc 96a8 c3bc 1729 28bc 10b4 083b
00000340: c849 babc 88ea c5bc e501 353c cb29 82bd
00000350: a040 60bd ffa2 513d de8c abbb 9fff 41bd
00000360: cbc4 5abd 33ca 8e3c 29b0 81bc 2969 6bbd
00000370: a2f4 50bd 8874 59bc f3f9 28bd 4bf5 62bd
00000380: 836a 65bd d848 c1bc 0522 54bd baed 81bb
00000390: d6e9 d6bd 1cac 1cbd df82 89bd 791e eb3c
000003a0: aecf 97bd 8ddb 13bd 53fa aabc bca6 90bc
000003b0: a65a 943d 67aa 2cbd ab34 083b 4b70 9c3c
000003c0: 703b 7c3c 9d73 5cbd df32 babc 0bf5 05bd
000003d0: da04 82bc fbdb 403c 0fbd 4fbd 48d9 393d
000003e0: 75f9 f9bc 794b ffbc eade 12bd 7141 7fbd
000003f0: dc15 3a3d 639e b23d 8859 673d ce8d 973d

6.0.bias f4 [64]
-0.051179614 0.033922598 -0.015761184 0.021188544 -0.009820463 0.011073433 -0.058738325 -0.05276686
0.010351089 0.04390064 0.022518927 0.011339691 0.04654644 0.04189927 0.04785188 -0.03440304
-0.047351047 0.07675574 0.026142776 -0.015140082 -0.040609725 0.050904743 0.009427252 0.077747054
-0.018803153 0.06947489 0.060064077 0.0117773395 -0.02426598 -0.028596759 0.061904047 0.024250342
0.038215026 -0.012524748 -0.024603212 -0.043875918 -0.021731537 0.0072886255 0.100315504 0.05114785
-0.051582377 0.077038124 0.0059546074 -0.055740047 -0.005859466 0.056704257 0.052907545 -0.022431236
-0.039821785 0.09770367 -0.03780262 -0.010603831 0.028078564 -0.018732093 -0.050966397 -0.048951413
-0.017215142 0.046460316 0.07760926 0.06377896 -0.040108208 0.01719332 0.04929449 0.011239339
00000000: b7a1 51bd 6cf2 0a3d 991d 81bc 9993 ad3c
00000010: 02e6 20bc 586d 353c 9997 70bd 1022 58bd
00000020: 9d97 293c 28d1 333d 9d79 b83c 1cca 393c
00000030: 7ba7 3e3d 929e 2b3d 5500 443d 34ea 0cbd
00000040: 2cf3 41bd 1d32 9d3d 6029 d63c 1b0e 78bc
00000050: 6256 26bd 7e81 503d c374 1a3c d939 9f3d
00000060: 1209 9abc da48 8e3d c005 763d bef5 403c
00000070: 73c9 c6bc c043 eabc 198f 7d3d a7a8 c63c
00000080: 5c87 1c3d 9a34 4dbc ad8c c9bc 3cb7 33bd
00000090: 5606 b2bc 6cd5 ee3b 3772 cd3d 6880 513d
000000a0: 0b48 53bd 2ac6 9d3d de1e c33b ad4f 64bd
000000b0: c300 c0bb b942 683d 95b5 583d b6c1 b7bc
000000c0: 2b1c 23bd dd18 c83d ecd6 1abd b1bb 2dbc
000000d0: 0405 e63c 0c74 99bc 24c2 50bd 4781 48bd
000000e0: c506 8dbc 2c4d 3e3d 9bf1 9e3d 8b9e 823d
000000f0: 8148 24bd 01d9 8c3c 05e9 493d 3425 383c

7.0.weight f4 [10, 64]
0.17273605 -0.0015371983 -0.0074010603 -0.07552581 0.06379005 0.08376212 0.19712512 0.14412475
-0.15095961 -0.13739985 -0.2446626 0.19968796 0.030979704 0.11650767 -0.19108957 -0.004889977
-0.032684617 -0.22777748 -0.12074746 0.07941943 -0.16726731 0.021685034 0.25037897 -0.14796095
-0.006361206 0.15594313 0.15260237 -0.29342544 0.088722534 0.06871018 0.31965962 -0.28650662
0.092480786 0.41395298 -0.04223994 -0.043824185 -0.03712969 -0.21919283 -0.050808694 -0.20083186
-0.04886552 0.30615005 0.055164427 -0.2213669 -0.15953618 0.060441654 0.04310113 -0.027185986
-0.055457033 0.21712713 -0.08662421 -0.030484041 -0.03028301 0.018683136 0.11280385 -0.11472197
0.003065016 -0.18749887 -0.16541149 0.29217416 -0.070921384 0.08487139 -0.24256366 0.30046082
0.14745817 -0.08560035 0.17757644 -0.061605588 -0.2037644 0.10920779 -0.13379666 0.32480225
0.34215063 0.17272046 -0.026016448 0.13285707 0.03351716 -0.12803914 0.28035113 -0.03560059
0.08457469 0.24116439 0.04873592 0.009207517 -0.004208612 -0.06645119 -0.14840709 0.18910012
-0.22408022 -0.07834265 -0.3526209 -0.2372452 0.10081738 0.06210053 0.16571578 -0.036183797
-0.05315585 -0.17773712 0.10973296 0.023235565 -0.01959818 -0.0052363155 -0.23685199 -0.35546678
-0.1500393 -0.24779363 -0.116987854 -0.049576927 0.16999786 -0.15759954 0.30066428 -0.004469158
0.23384604 0.005923951 0.10030526 -0.04301477 0.008187287 0.19282407 0.08821997 0.034112003
0.006287214 0.3201338 0.24239026 0.09582789 0.29911873 -0.075145364 0.48148 -0.09452417
-0.14039168 0.06698887 0.046368483 -0.10343936 -0.26745626 -0.13524884 0.19425456 0.014858964
0.25143534 0.3108663 -0.011548803 0.072877884 0.21878858 -0.2753462 0.2302601 0.17900078
0.3169843 -0.2255716 0.053547878 0.2157877 0.08398875 -0.052619833 0.2652551 -0.013736059
0.3491242 -0.15909337 -0.0152501175 -0.11291283 0.014573544 -0.07320854 0.11367362 0.16184045
-0.08453992 -0.018590575 0.011180609 0.31736302 -0.14161405 0.013531047 -0.15785815 0.18111695
0.04831365 0.01663908 0.30058444 -0.41733503 0.039547715 -0.13257375 -0.016895559 -0.036671266
0.28834268 -0.30503127 -0.014162598 0.19941509 0.022749526 0.06783417 -0.09099155 -0.03348979
0.1115481 0.30130196 -0.033228125 -0.104782894 0.061120965 -0.006419969 -0.3089373 0.17508341
-0.089230806 0.026887968 0.16246626 0.08048168 -0.1548806 -0.09403055 0.1657383 -0.060641676
0.007121632 -0.23676272 -0.008279913 -0.26864943 -0.02691665 -0.10606227 0.36466563 0.3352419
-0.037334807 -0.32358712 -0.009718851 0.22958395 0.18307488 0.313452 -0.12154614 -0.24137118
0.032946456 0.102431625 0.4511634 0.0070999246 0.07256873 -0.008838124 0.20684576 0.40945518
0.1102895 -0.15215386 0.011702142 -0.112801015 0.094028056 0.0662422 0.18766351 -0.13855763
-0.0017971521 0.14642309 0.012126241 0.022265086 0.35799524 -0.15395188 -0.22034462 -0.10491557
0.0587143 -0.23130032 -0.099808626 -0.1328713 -0.10858074 -0.12504718 0.026748123 0.02062907
0.0897624 -0.1754487 -0.15356022 -0.09790631 0.031721033 -0.0024394977 0.27163953 -0.18438923
00000000: b8e1 303e d17b c9ba 9884 f2bb 47ad 9abd
00000010: 5ca4 823d 798b ab3d 2bdb 493e 7095 133e
00000020: 2895 1abe 8cb2 0cbe d588 7abe 007b 4c3e
00000030: 26c9 fd3c 939b ee3d fcac 43be 1a3c a0bb
00000040: 4ee0 05bd 803e 69be 724a f7bd a7a6 a23d
00000050: 1f48 2bbe d0a4 b13c ac31 803e 1383 17be
00000060: aa71 d0bb 8eaf 1f3e cc43 1c3e dc3b 96be
00000070: 29b4 b53d ecb7 8c3d 6daa a33e ffb0 92be
00000080: 9166 bd3d a5f1 d33e ca03 2dbd fd80 33bd
00000090: 4d15 18bd 1674 60be c71c 50bd dea6 4dbe
000000a0: 3627 48bd b3bf 9c3e 18f4 613d 01ae 62be
000000b0: 745d 23be ab91 773d cf8a 303d 25b5 debc
000000c0: ea26 63bd 9356 5e3e 0968 b1bd abb9 f9bc
000000d0: 1314 f8bc 600d 993c b405 e73d 5af3 eabd
000000e0: 6fde 483b b4ff 3fbe a161 29be da97 953e
000000f0: 3b3f 91bd 0dd1 ad3d 9c62 78be 00d6 993e
00000100: 46ff 163e 3c4f afbd 99d6 353e 2456 7cbd
00000110: 9da7 50be 55a8 df3d fe01 09be 7b4c a63e
00000120: 5e2e af3e a2dd 303e 7220 d5bc af0b 083e
00000130: 4a49 093d b11c 03be 2f8a 8f3e edd1 11bd
00000140: 7f35 ad3d ccf3 763e 519f 473d 20db 163c
00000150: 65e8 89bb 9017 88bd 07f8 17be 76a3 413e
00000160: 4975 65be 1c72 a0bd ba8a b4be 68f0 72be
00000170: 5879 ce3d 205d 7e3d 66b1 293e 7635 14bd
00000180: f3b9 59bd b800 36be adbb e03d 8358 be3c
00000190: 5d8c a0bc 6695 abbb 5489 72be beff b5be
000001a0: e7a3 19be 9dbd 7dbe 5497 efbd 2d11 4bbd
000001b0: eb13 2e3e c661 21be abf0 993e 0472 92bb
000001c0: 5675 6f3e b41d c23b d86c cd3d 4130 30bd
000001d0: f823 063c ac73 453e acac b43d 07b9 0b3d
000001e0: f904 ce3b 94e8 a33e 2735 783e 6a41 c43d
000001f0: 1726 993e d0e5 99bd 8c84 f63e e395 c1bd
00000200: d6c2 0fbe 7631 893d e1ec 3d3d 04d8 d3bd
00000210: 07f0 88be ac7e 0abe abea 463e 0373 733c
00000220: 22bc 803e de29 9f3e 3137 3dbc 0041 953d
00000230: 1d0a 603e 2dfa 8cbe 4ec9 6b3e fb4b 373e
00000240: c44b a23e 3efc 66be 0555 5b3d 73f7 5c3e
00000250: 4b02 ac3d e587 57bd 84cf 873e 350d 61bc
00000260: 68c0 b23e 5fe9 22be a1db 79bc d83e e7bd
00000270: e0c5 6e3c 5cee 95bd b7cd e83d 81b9 253e
00000280: 4423 adbd 434b 98bc e02e 373c 687d a23e
00000290: 4603 11be 53b1 5d3c 91a5 21be b976 393e
000002a0: 89e4 453d ae4e 883c 34e6 993e f0ac d5be
000002b0: c9fc 213d 6ac1 07be 8e68 8abc 9c34 16bd
000002c0: a7a1 933e 0f2d 9cbe 3e0a 68bc 7833 4c3e
000002d0: 375d ba3c a4ec 8a3d c759 babd 972c 09bd
000002e0: 5573 e43d 4044 9a3e 371a 08bd 6a98 d6bd
000002f0: fa59 7a3d 9a5e d2bb 082d 9ebe 1149 333e
00000300: a4be b6bd 2844 dc3c 8e5d 263e 94d3 a43d
00000310: 0599 1ebe 1793 c0bd 4db7 293e 6863 78bd
00000320: 945c e93b ed71 72be 79a8 07bc 6b8c 89be
00000330: 4e80 dcbc 2d37 d9bd 74b5 ba3e d4a4 ab3e
00000340: 62ec 18bd 36ad a5be d13b 1fbc 0e18 6b3e
00000350: fb77 3b3e c87c a03e 2fed f8bd 022a 77be
00000360: ddf2 063d acc7 d13d e4fe e63e 7ca6 e83b
00000370: ea9e 943d c7cd 10bc 60cf 533e 1ca4 d13e
00000380: 76df e13d 39ce 1bbe 57ba 3f3c 3804 e7bd
00000390: c891 c03d fea9 873d dd2a 403e 0de2 0dbe
000003a0: 6b8e ebba efef 153e 24ad 463c 4565 b63c
000003b0: 274b b73e 90a5 1dbe 05a2 61be f9dd d6bd
000003c0: 687e 703d fed9 6cbe 7768 ccbd 6a0f 08be
000003d0: 945f debd 5e0c 00be e11e db3c 4cfe a83c
000003e0: 59d5 b73d d3a8 33be e43e 1dbe 1a83 c8bd
000003f0: eaed 013d fbdf 1fbb 5614 8b3e 88d0 3cbe

7.0.bias f4 [10]
0.094879285 -0.009533461 -0.0285124 -0.06351482 0.038136676 0.18332314 -0.113093294 0.12758142
0.021075707 -0.043492522
00000000: 1250 c23d 3c32 1cbc d692 e9bc 0f14 82bd
00000010: 3435 1c3d 10b9 3b3e 759d e7bd b4a4 023e
00000020: f6a6 ac3c 3725 32bd
